dz1/cifar.pt (torch, 126407 bytes, 6 tensors)

mean f4 [3]
0.5074 0.4867 0.4411
00000000: f7e4 013f be30 f93e dcd7 e13e

std f4 [3]
0.2011 0.1987 0.2025
00000000: 29ed 4d3e 0378 4b3e 295c 4f3e

weight f4 [10, 3072]
-0.004928717 0.0053650793 -0.0073925187 -0.0006835387 0.0074697495 -0.010767082 -0.004647174 -0.004479976
-0.004248542 0.011279217 -0.004223107 -0.009608026 0.017247042 0.017038487 -0.0027522675 -0.006115969
-0.004785924 0.0058186124 -0.014507012 0.0155499205 0.005567515 -0.0044237636 -0.007041985 0.015504721
-0.0042049997 -0.008856286 -0.014966459 -0.0108186025 0.0017039039 0.014276357 -0.006339881 0.010172825
-0.0068702227 -0.0071872286 0.011089244 -0.008153844 -0.0075624483 0.015610823 -0.00054801255 -0.00013128539
0.0021566132 -0.0035562161 0.0017548361 6.42019e-05 0.0069146305 -0.003796326 0.0020637494 0.0143084675
-0.006336726 0.008301283 -0.018115355 -0.014648607 0.008561161 -0.0034725245 0.0076680733 0.005712695
-0.014156299 0.0032550457 0.009480643 0.014983596 -0.012951435 0.004940899 0.0043454836 -0.016415246
0.010407316 -0.010326333 -0.0072332933 0.017311828 0.011700933 -0.010972991 -0.005047716 0.004123253
-0.0033044359 0.009456116 -0.01189044 0.008840926 0.0103312945 -0.0134351365 0.003268323 0.0070032733
-0.013346865 0.0009320912 -0.0072190496 -0.01263966 -0.0011976557 -0.0017431178 0.0152217215 0.00023315391
0.017096473 -0.0050638192 -0.0024002483 -0.012388941 0.018915752 -0.0008280565 -0.0125192255 -0.016352646
-0.010438986 0.0152708 -0.010314181 -0.0145418905 0.010721827 -0.004419514 -0.0027372583 0.0008823604
0.00070047856 -0.011274875 0.0020173325 0.013868538 -0.0071640937 0.018314037 -0.007179701 0.005604929
0.0019858459 -0.010587872 0.017190656 -0.010629688 -0.003684268 0.003454023 -0.006703778 -0.015215463
0.003285271 0.007539831 -0.0099152615 -0.015049841 0.0032210029 -0.0065610404 -0.0037254123 0.0026975677
-0.005883821 0.0025381655 -0.0018189005 0.0036864395 0.010348449 0.015192781 0.0003215656 -0.010190231
-0.007843624 0.0011604216 -0.010561786 0.012509221 -0.018392442 -0.010418211 -0.017724564 -0.00074262766
-0.012220793 -0.016293742 0.017195828 -0.016184654 -0.0054826667 0.002377709 0.0023195508 0.017469306
-0.0056452164 0.002246062 -0.00035116242 -0.016013863 -0.0026459098 -0.0069740955 0.018291637 -0.015604839
0.0032342195 -0.0030749044 -0.011718108 0.007839469 0.011652544 -0.009261538 0.0033357118 -0.003985086
0.0047446177 0.008386854 0.018523654 -0.0002358029 -0.002026635 -0.0113042025 -0.008408638 -0.0059074033
-0.0063462276 0.0072355163 0.0074591003 -0.009324814 0.0140845375 0.0026403582 0.015613934 0.00050646195
-0.005248444 0.012908813 -0.0061083897 0.016514266 0.003745556 -0.014762991 0.012897388 0.007945936
0.010627148 -0.00020770439 -0.015994651 -0.0017390443 0.01395755 0.010275997 0.0026451068 -0.010949427
0.004929399 0.0054594954 0.013320204 -0.011254753 -0.011851605 -0.004693136 -0.01282578 -0.016134378
0.0004482261 -0.008727156 -0.01598107 -0.013592461 0.0016710324 -0.010543605 0.009145707 0.015673265
-0.009167522 0.004519302 0.00052775524 -0.0062235887 0.008546553 0.0020928532 -0.006249497 0.012828876
0.010589187 -0.01676573 0.010624471 0.006819717 -0.01573834 -0.00049369957 -0.0031418882 -0.01937122
-0.006790329 0.0054314286 0.013058446 0.015249144 0.016416645 -0.020877957 0.0037178176 0.007876814
-0.014804209 -0.0016945992 -0.010243307 -0.005068402 -0.012802317 0.0037797953 -0.014946734 0.017118227
-0.015445831 -0.02046862 -0.008093539 -0.012666269 0.0004414318 0.010444827 -0.016324215 -0.0037215457
00000000: 1381 a1bb 8ccd af3b f13c f2bb 812f 33ba
00000010: cdc4 f43b 6a68 30bc 5247 98bb c3cc 92bb
00000020: 5a37 8bbb 77cc 383c fd61 8abb fb6a 1dbc
00000030: ab49 8d3c 4c94 8b3c 635f 34bb 7768 c8bb
00000040: 3ed3 9cbb 0faa be3b d2ae 6dbc 18c5 7e3c
00000050: b36f b63b 38f5 90bb 74c0 e6bb 8307 7e3c
00000060: 18ca 89bb f519 11bc e135 75bc 8240 31bc
00000070: 8755 df3a 62e7 693c c7be cfbb ecab 263c
00000080: 9b1f e1bb d882 ebbb a9af 353c b397 05bc
00000090: 6ace f7bb 8ac4 7f3c 80a8 0fba a7a9 09b9
000000a0: f755 0d3b 680f 69bb 8702 e63a 22a4 8638
000000b0: 2094 e23b c8cb 78bb f83f 073b 106e 6a3c
000000c0: 4fa4 cfbb 1b02 083c a766 94bc b600 70bc
000000d0: 1d44 0c3c 4b93 63bb 7644 fb3b 8f31 bb3b
000000e0: d2ef 67bc 9b52 553b b354 1b3c c27d 753c
000000f0: 4132 54bc 44e7 a13b 8f64 8e3b 4479 86bc
00000100: 7283 2a3c c82f 29bc 4305 edbb 89d1 8d3c
00000110: 45b5 3f3c 0fc8 33bc 5067 a5bb 5a1c 873b
00000120: 3c8f 58bb d3ed 1a3c 1fd0 42bc 88d9 103c
00000130: 9744 293c 0c1f 5cbc 5c31 563b b77b e53b
00000140: cfac 5abc 9557 743a c78d ecbb 9416 4fbc
00000150: a8fa 9cba 5479 e4ba 8764 793c c77a 7439
00000160: e70d 8c3c 65ee a5bb 7c4d 1dbb fcfa 4abc
00000170: 35f5 9a3c ee11 59ba 701d 4dbc fcf5 85bc
00000180: 4808 2bbc 6132 7a3c d0fc 28bc 1c41 6ebc
00000190: 9aaa 2f3c 92d1 90bb 9363 33bb 344e 673a
000001a0: 52a0 373a 41ba 38bc 3935 043b dd38 633c
000001b0: c6c0 eabb 5207 963c b243 ebbb 8da9 b73b
000001c0: f724 023b c178 2dbc 6bd3 8c3c 2528 2ebc
000001d0: c373 71bb e45c 623b 5eab dbbb 474a 79bc
000001e0: b44d 573b b010 f73b 9f73 22bc 9c93 76bc
000001f0: 7617 533b fffd d6bb 0c26 74bb adc9 303b
00000200: 11cd c0bb 5a57 263b 2c68 eeba 3198 713b
00000210: 8b8c 293c 24eb 783c ce97 a839 edf4 26bc
00000220: 8b82 00bc 4a19 983a 570b 2dbc 7af3 4c3c
00000230: bfab 96bc 25b1 2abc 1b33 91bc e6ac 42ba
00000240: b939 48bc 747a 85bc 44de 8c3c ae95 84bc
00000250: f1a7 b3bb 56d3 1b3b 9b03 183b ca1b 8f3c
00000260: 82fb b8bb ab32 133b 391c b8b9 812f 83bc
00000270: 0067 2dbb f486 e4bb 58d8 953c 70ab 7fbc
00000280: 33f5 533b 5684 49bb 4ffd 3fbc 1e71 003c
00000290: 50ea 3e3c b5bd 17bc f59b 5a3b 5395 82bb
000002a0: bd78 9b3b 0469 093c ebbe 973c dc41 77b9
000002b0: 4bd1 04bb 4335 39bc 62c4 09bc e492 c1bb
000002c0: 04f4 cfbb e917 ed3b 786b f43b 1bc7 18bc
000002d0: d5c2 663c dc09 2d3b 96d1 7f3c 16c4 043a
000002e0: 24fb abbb 7c7f 533c e328 c8bb ed48 873c
000002f0: 0178 753b 79e0 71bc 914f 533c ac2f 023c
00000300: 7d1d 2e3c 39cb 59b9 3707 83bc a5f0 e3ba
00000310: 35ae 643c a85c 283c 8759 2d3b 3a65 33bc
00000320: cc86 a13b 91e5 b23b fc3c 5a3c db65 38bc
00000330: 3c2d 42bc e1c8 99bb 3823 52bc 3e2c 84bc
00000340: e4ff ea39 58fc 0ebc bcea 82bc eab2 5ebc
00000350: 8b06 db3a 16bf 2cbc e0d7 153c 3865 803c
00000360: 6033 16bc a716 943b 0e59 0a3a 3fef cbbb
00000370: d706 0c3c 4028 093b 95c8 ccbb 3530 523c
00000380: 457e 2d3c 4958 89bc 4312 2e3c ef77 df3b
00000390: b1ed 80bc 9e6b 01ba 23e8 4dbb 65b0 9ebc
000003a0: 6881 debb 20fa b13b 18f3 553c 8cd7 793c
000003b0: 337c 863c 4008 abbc a1a6 733b c10d 013c
000003c0: 5a8d 72bc 501d deba 8bd3 27bc d614 a6bb
000003d0: cfc0 51bc 71b6 773b 25e3 74bc 863b 8c3c
000003e0: 8310 7dbc cfad a7bc c39a 04bc 2f86 4fbc
000003f0: f96f e739 c820 2b3c 5cba 85bc 2de5 73bb

bias f4 [10]
-0.0003184684 0.021399783 -0.008095722 -0.01868158 0.010881858 -0.0010817702 0.023855401 -0.0013789486
0.0147601245 -0.0069276793
00000000: 1bf8 a6b9 994e af3c eba3 04bc 1d0a 99bc
00000010: d249 323c 2fca 8dba 676c c33c d6bd b4ba
00000020: 73d4 713c 9601 e3bb

weight f4 [3, 10]
-0.03904163 -0.3196516 0.1865317 -0.28414 0.24742343 0.2201996 0.2533513 0.21080905
0.033433337 0.2740348 -0.09113389 0.47816998 0.050253727 -0.076539606 -0.4019171 0.13590866
-0.27924365 0.11710042 -0.0049198163 -0.009148388 0.17948014 0.12613767 0.28604496 0.29751867
0.19678032 0.10472975 0.2363543 0.2503261 0.05623832 -0.2772977
00000000: 1eea 1fbd 60a9 a3be 2a02 3f3e cc7a 91be
00000010: 915c 7d3e 017c 613e 43b7 813e 54de 573e
00000020: 65f1 083d 4a4e 8c3e 68a4 babd b2d2 f43e
00000030: dad6 4d3d ccc0 9cbd 14c8 cdbe a42b 0b3e
00000040: 06f9 8ebe 58d2 ef3d 6936 a1bb 1fe3 15bc
00000050: a4c9 373e 3c2a 013e 7c74 923e 5e54 983e
00000060: c880 493e 8d7c d63d dd06 723e be2a 803e
00000070: 275a 663d f7f9 8dbe

bias f4 [3]
0.04073673 0.38609242 -0.2274164
00000000: 8fdb 263d e8ad c53e d8df 68be
