3 lab/cifar_cnn_aug.pth (torch, 311111 bytes, 6 tensors)

seq.1.weight f4 [64, 3, 3, 3]
-0.092563 0.0013139511 0.16848586 -0.077703506 -0.07114424 0.0894349 0.15403958 -0.15797023
-0.04930806 -0.16631357 -0.070636034 -0.033816367 -0.04864225 -0.052434634 -0.18432349 0.12797986
0.11392179 0.0075822263 0.15223692 -0.12160633 0.15407152 0.087604135 -0.16242942 0.036184974
0.14901927 0.026850374 -0.07709711 -0.032302756 -0.10927757 -0.029957559 -0.1697202 -0.008999631
0.06398972 -0.040837873 -0.08659881 0.05082845 -0.06342573 0.17914866 -0.12928924 0.13206643
0.12480686 0.07158011 0.12604779 -0.16357107 -0.0896072 -0.09388009 0.11827341 0.16823697
0.097751684 -0.027326891 0.1538877 0.058676105 0.14722624 0.13935974 0.15182129 0.15254597
-0.005759105 -0.13273299 -0.16280055 0.07604507 0.038118996 -0.08798973 -0.0986624 0.1654317
-0.11226292 0.0900818 -0.17061505 0.082367964 -0.03119235 0.03858878 0.104913756 0.17976576
0.032769926 -0.1147843 -0.10287662 -0.07748966 0.08655322 -0.04305403 0.13701524 0.106645286
-0.031720933 0.13452531 -0.07425778 -0.15878561 0.11903423 0.14464007 -0.047688216 0.17831194
-0.074206166 0.14106315 0.1608475 0.10907847 -0.07854869 -0.019739289 0.11124178 0.13124654
0.060789708 -0.0094479015 0.15130074 0.021275789 0.03880514 0.13532898 0.04427241 -0.0163151
0.01438922 0.1580397 0.03326426 0.10317928 0.0007638564 -0.06250042 0.051431153 0.16422392
0.10372545 -0.049382914 -0.16234201 -0.09758362 3.4987697e-06 -0.1499077 0.101162314 0.096859254
-0.009526607 0.075263865 -0.05809554 -0.14173247 -0.18728156 -0.119648 -0.16424955 0.08823365
-0.06953742 0.16081652 -0.14932005 -0.14891396 -0.17219906 -0.1765512 0.12533394 0.0871998
-0.17804624 0.05467177 -0.093714476 0.027589189 -0.10181523 0.035130255 0.11558382 -0.037552267
-0.12184679 0.11945688 -0.08094433 -0.0007380391 -0.009459336 -0.19210339 -0.15758117 -0.12650087
-0.118361264 0.12791808 -0.09641245 0.05610892 0.050054148 0.0032083604 -0.19523084 -0.10984308
-0.032442648 0.0042910427 0.106624 -0.08469138 -0.15246886 -0.06864646 -0.05012496 0.089082606
-0.10374778 -0.13508429 0.07787176 -0.09272906 -0.044578753 0.1055034 -0.15431546 0.03929987
-0.18074556 -0.12821692 -0.1396602 0.14775424 -0.10717616 0.054074254 0.18328571 -0.15836741
-0.04822588 -0.049852982 -0.18005838 0.15619898 0.115075864 -0.16516867 0.10888666 0.06923133
-0.1135215 -0.0983205 -0.020150349 0.18332255 0.11207524 0.18207581 -0.112406075 -0.10952326
-0.18605612 -0.11374455 0.18407975 0.14116138 -0.18393789 0.13038872 0.057271544 -0.104960084
0.016381439 -0.16446446 -0.023500556 0.0097473115 -0.056625996 0.106053166 0.07560165 -0.0013676345
0.09816269 -0.026201999 -0.011334911 0.06830352 0.19150719 -0.1714707 -0.007723449 0.08967658
-0.07494187 -0.1077611 0.033766683 0.033668377 0.09055357 -0.119046256 0.17422056 -0.03238932
-0.094576925 0.012004913 -0.06892787 0.05720919 0.019053882 -0.17250268 0.013919383 -0.0802346
0.14530121 0.024337815 -0.122850075 0.10300295 0.0036575182 0.11936755 -0.068325505 0.13834064
-0.13303417 -0.18102306 0.15367432 0.0017741019 -0.003706194 -0.09348921 -0.1586974 0.09385921
00000000: ac91 bdbd e238 ac3a 8f87 2c3e 0423 9fbd
00000010: 12b4 91bd a529 b73d 8dbc 1d3e f3c2 21be
00000020: 40f7 49bd 1b4e 2abe a0a9 90bd 0883 0abd
00000030: 193d 47bd b3c5 56bd 4cbf 3cbe 270d 033e
00000040: d44f e93d 5374 f83b ffe3 1b3e bd0c f9bd
00000050: edc4 1d3e cc69 b33d e653 26be b236 143d
00000060: 8298 183e 51f5 db3c 17e5 9dbd e54f 04bd
00000070: ebcc dfbd 8e69 f5bc 22cb 2dbe 3073 13bc
00000080: 0b0d 833d 9d45 27bd b85a b1bd 7e31 503d
00000090: 59e5 81bd bf72 373e 6664 04be 6c3c 073e
000000a0: bd9a ff3d 9898 923d ac12 013e 2d7f 27be
000000b0: fb83 b7bd 3444 c0bd 5439 f23d 5046 2c3e
000000c0: 0932 c83d a5dc dfbc bd94 1d3e 5b56 703d
000000d0: 7ac2 163e 52b4 0e3e 0a77 1b3e 0335 1c3e
000000e0: e0b6 bcbb 28eb 07be 30b5 26be 85bd 9b3d
000000f0: aa22 1c3d f633 b4bd 830f cabd ed66 293e
00000100: 1aea e5bd cf7c b83d b6b5 2ebe 89b0 a83d
00000110: 1987 ffbc 450f 1e3d 06dd d63d 8414 383e
00000120: c239 063d 0814 ebbd fab0 d2bd e6b2 9ebd
00000130: d142 b13d 6c59 30bd b94d 0c3e d868 da3d
00000140: cfed 01bd 01c1 093e 7714 98bd b298 22be
00000150: 38c8 f33d 871c 143e b854 43bd 6897 363e
00000160: 67f9 97bd dc72 103e 35b5 243e 8864 df3d
00000170: 23de a0bd 4ab4 a1bc bbd2 e33d 7e65 063e
00000180: a1fe 783d 5fcb 1abc 95ee 1a3e 904a ae3c
00000190: 23f2 1e3d ae93 0a3e fd56 353d 3fa7 85bc
000001a0: c3c0 6b3c 29d5 213e 1b40 083d a94f d33d
000001b0: 893d 483a 3800 80bd 79a9 523d 512a 283e
000001c0: 026e d43d bd45 4abd fc3c 26be ecd9 c7bd
000001d0: 68cc 6a36 6781 19be 302e cf3d 255e c63d
000001e0: 7c15 1cbc f123 9a3d 97f5 6dbd 5122 11be
000001f0: bdc6 3fbe 030a f5bd 0931 28be d8b3 b43d
00000200: a369 8ebd 16ad 243e 5be7 18be e77c 18be
00000210: f354 30be d6c9 34be 8a57 003e cf95 b23d
00000220: c151 36be 82ef 5f3d 60ed bfbd b902 e23c
00000230: 8184 d0bd bee4 0f3d 36b7 ec3d 68d0 19bd
00000240: cf8a f9bd cfa5 f43d 24c6 a5bd f778 41ba
00000250: 55fb 1abc c0b6 44be f55c 21be 7289 01be
00000260: 6467 f2bd f5fc 023e e473 c5bd 78d2 653d
00000270: 9405 4d3d 5b43 523b 98ea 47be 69f5 e0bd
00000280: 95e2 04bd e09b 8c3b af5d da3d ad72 adbd
00000290: cc20 1cbe 8496 8cbd d44f 4dbd f170 b63d
000002a0: b779 d4bd 8953 0abe 3b7b 9f3d bce8 bdbd
000002b0: 3698 36bd 2b12 d83d df04 1ebe e7f8 203d
000002c0: 5d15 39be 4c4b 03be 1503 0fbe e34c 173e
000002d0: 2d7f dbbd f77c 5d3d 40af 3b3e 112b 22be
000002e0: 8088 45bd a432 4cbd 3961 38be a0f2 1f3e
000002f0: e5ac eb3d fa21 29be f8ff de3d 28c9 8d3d
00000300: f67d e8bd 425c c9bd 5812 a5bc e8b8 3b3e
00000310: b487 e53d 1572 3a3e 2835 e6bd bb4d e0bd
00000320: 7f85 3ebe e7f2 e8bd 677f 3c3e 9c8c 103e
00000330: 375a 3cbe 9f84 053e 9195 6a3d 50f5 d6bd
00000340: 5e32 863c 5f69 28be 3d84 c0bc 30b3 1f3c
00000350: a9f0 67bd 6732 d93d 0ad5 9a3d 3342 b3ba
00000360: 8509 c93d 93a5 d6bc 10b6 39bc b7e2 8b3d
00000370: 761a 443e 0496 2fbe fc14 fdbb 5ba8 b73d
00000380: 207b 99bd dab1 dcbd ef4e 0a3d dae7 093d
00000390: 2674 b93d 86ce f3bd e066 323e aaaa 04bd
000003a0: 8cb1 c1bd 41b0 443c 0e2a 8dbd 2f54 6a3d
000003b0: e316 9c3c 8ba4 30be 200e 643c 0a52 a4bd
000003c0: d7c9 143e 1960 c73c d298 fbbd 36f3 d23d
000003d0: f9b2 6f3b f976 f43d 3eee 8bbd 2ba9 0d3e
000003e0: 1c3a 08be 1c5e 39be cd5c 1d3e fb88 e83a
000003f0: 9ee3 72bb 4577 bfbd 9281 22be 4239 c03d

seq.1.bias f4 [64]
0.15341002 0.006731464 -0.19048266 0.19440523 -0.025017807 0.055437323 -0.16054897 0.09309161
0.09719077 -0.13962655 -0.085095905 0.1382908 0.1566896 -0.0037490672 0.16958028 0.09640482
0.17286906 -0.15891023 -0.12666827 -0.0894397 -0.11441084 0.009051676 0.04999985 -0.14324152
0.056366697 -0.052879445 -0.10140625 0.06696511 -0.019508712 0.08623592 -0.025426527 -0.10805534
-0.13761829 0.14933114 -0.0349713 0.17304507 -0.109149896 0.051131878 -0.12399376 -0.015354777
-0.014637277 -0.1482096 0.11325834 -0.068830505 0.10272018 0.07784661 0.032413386 -0.15223588
-0.05124039 0.020305073 0.15971337 -0.15005316 -0.008344324 -0.02402495 0.06851059 -0.18944053
-0.098209664 0.013232343 0.061166808 -0.11012624 0.15394941 -0.03087483 -0.013829063 -0.15616748
00000000: 8417 1d3e 9d93 dc3b e30d 43be 2a12 473e
00000010: 25f2 ccbc 3f12 633d f366 24be d0a6 be3d
00000020: f40b c73d 43fa 0ebe c346 aebd 1a9c 0d3e
00000030: 3d73 203e e9b2 75bb 74a6 2d3e e46f c53d
00000040: 9604 313e 5db9 22be 54b5 01be 292c b7bd
00000050: 3b50 eabd 7b4d 143c a5cc 4c3d e8ad 12be
00000060: c4e0 663d 1e98 58bd 14ae cfbd 0125 893d
00000070: bcd0 9fbc 759c b03d 4b4b d0bc 1e4c ddbd
00000080: cfeb 0cbe 43ea 183e 113e 0fbd ba32 313e
00000090: fb89 dfbd a96f 513d 71f0 fdbd 9a92 7bbc
000000a0: 31d1 6fbc 42c4 17be fdf3 e73d 02f7 8cbd
000000b0: f55e d23d 0b6e 9f3d e6c3 043d b9e3 1bbe
000000c0: 71e1 51bd d356 a63c e78b 233e 89a7 19be
000000d0: a2b6 08bc f9cf c4bc 484f 8c3d b3fc 41be
000000e0: 2622 c9bd 78cc 583c 0c8a 7a3d de89 e1bd
000000f0: eaa4 1d3e 36ed fcbc 4b93 62bc 5eea 1fbe

seq.4.weight f4 [128, 64, 3, 3]
-0.0038469078 0.024115264 0.0063177194 0.026811745 0.0057527185 0.019538779 -0.031546876 -0.028536465
0.020326125 -0.0013424021 -0.020908874 -0.009222919 -0.0052968175 -0.039325625 -0.023440698 0.039492242
-0.026922999 0.0041294736 0.0031642537 0.035941757 -0.011406875 0.013857874 -0.010358204 0.024566177
0.004865349 -0.019088972 0.03804743 -0.031215033 -0.013313459 -0.02386704 -0.028714666 -0.0043657585
-0.03405403 -0.030656613 0.017400848 -0.013903886 -0.014967067 -0.029760366 0.014775593 -0.0069409953
0.004045275 0.011283898 0.042063367 -0.009798581 0.041512817 0.04427062 -0.019687712 0.023234822
0.015303582 -0.0045780623 0.0009062082 -0.015016819 -0.01099785 -0.021158226 -0.008950922 -0.005821255
-0.034754425 0.026698548 0.008097944 0.015539564 -0.013623831 0.023034835 -0.00040881408 -0.033122078
0.006890296 0.02393624 -0.032119043 0.026102835 -0.009005296 0.040597722 -0.02096533 0.037667003
0.040595558 -0.041757736 -0.034582507 -0.031070873 -0.004630355 -0.012919904 0.011904662 0.0054263873
-0.02654628 -0.027477508 0.013829262 -0.017048197 0.03729741 -0.025178824 0.034297723 0.009724104
0.020641489 0.01321029 0.034976535 -0.0324668 0.006355025 0.0378337 0.02637883 0.022042202
-0.021154204 -0.027853351 0.03903446 -0.0052985577 0.007922153 0.023214012 0.020645197 0.028612694
0.0058288476 0.013947574 0.033131324 -0.023986643 0.016370192 0.010364218 0.036883295 -0.0070136
-0.020070255 -0.011918828 -0.023443839 0.008754586 0.019716924 -0.024288408 -0.011543033 0.0030039304
-0.0028698815 0.020901423 -0.00843839 0.028569572 0.02735771 -0.019662255 0.0029839305 0.009129049
-0.006302611 -0.015884848 -0.005315177 -0.025843682 -0.028638177 0.018283738 0.0052559576 -0.012467119
-0.02374037 0.02704468 0.031155577 -0.00851578 0.026397008 0.011029898 0.009207282 -0.03928568
-0.027018858 -0.021418164 0.017373737 -0.015728444 0.026033303 -0.022566764 -0.0063872137 -0.0012614582
0.044977058 0.0033004512 0.029596942 0.031138487 0.028510995 -0.011586203 0.0057505653 0.02657176
0.026083296 -0.015100027 -0.010546344 -0.011952528 -0.026220769 0.03863073 -0.040018626 0.011049656
-0.015085123 -0.018493345 -0.016016055 -0.020148775 -0.016975 0.014922732 0.033401277 -0.014421378
0.030938419 0.021234307 0.016576266 -0.03996064 0.01520372 -0.030438088 -0.022283146 0.043938212
-0.011978971 0.03100865 -0.016552698 -0.01702126 0.023207834 -0.012180809 -0.0228515 -0.02443811
0.0135469455 0.034890182 -0.024879426 -0.026546735 0.039418764 0.036502883 0.024072804 -0.025394557
-0.03570946 -0.001546119 0.041095693 0.033532593 0.018303443 -0.0103207715 0.007807188 0.04065754
0.03726142 0.041450117 0.028152337 5.824904e-05 0.012389593 0.035317056 0.038198713 0.04093464
-0.008309574 -0.0063010966 0.008529934 -0.00820147 0.029219866 0.04243442 -0.020170677 -0.02912421
-0.025169687 -0.035650447 0.03415212 0.017210333 0.0125848865 -0.02123445 -0.029800886 0.035685133
0.001997639 -0.02267952 0.03674486 -0.0034819536 -0.005618191 0.03103356 0.01661695 -0.017201394
-0.038428165 0.032693863 0.034235697 -0.02633549 -0.0030246824 0.00015963546 0.036680833 0.025253855
-0.026352823 0.010713379 0.021535983 0.014127012 -0.016898643 -0.034804024 -0.033921942 -0.0077115204
00000000: 671c 7cbb 608d c53c df04 cf3b 4ea4 db3c
00000010: 4d81 bc3b ca0f a03c 4c37 01bd 4ec5 e9bc
00000020: f982 a63c 8af3 afba 1649 abbc ba1b 17bc
00000030: ed90 adbb e813 21bd b506 c0bc 9ec2 213d
00000040: 9f8d dcbc 8950 873b 5e5f 4f3b aa37 133d
00000050: e7e3 3abc 230c 633c 75b5 29bc 023f c93c
00000060: 816d 9f3b 7a60 9cbc 9fd7 1b3d abb6 ffbc
00000070: b220 5abc d084 c3bc 053b ebbc a30e 8fbb
00000080: 3d7c 0bbd 9423 fbbc 398c 8e3c 20cd 63bc
00000090: 6e38 75bc 03cc f3bc 5415 723c 4a71 e3bb
000000a0: 3a8e 843b 19e0 383c a34a 2c3d 3a8a 20bc
000000b0: 5809 2a3d 1c55 353d 2048 a1bc f456 be3c
000000c0: e0bb 7a3c 9203 96bb 9a8e 6d3a 1b09 76bc
000000d0: 5430 34bc 0454 adbc e3a6 12bc 3ac0 bebb
000000e0: a85a 0ebd eab6 da3c 3dad 043c a899 7e3c
000000f0: 7d36 5fbc 8db3 bc3c 1956 d6b9 04ab 07bd
00000100: fec7 e13b ef15 c43c 428f 03bd 9dd5 d53c
00000110: f38a 13bc cc49 263d 7cbf abbc b748 1a3d
00000120: 8747 263d 290a 2bbd 63a6 0dbd 5888 febc
00000130: 3cba 97bb 01ae 53bc c50b 433c d6cf b13b
00000140: 9677 d9bc 8318 e1bc 2194 623c a9a8 8bbc
00000150: 2bc5 183d d243 cebc c57b 0c3d d951 1f3c
00000160: 5718 a93c f96f 583c 8e43 0f3d e8fb 04bd
00000170: d03d d03b 83f7 1a3d 6b18 d83c d991 b43c
00000180: 954b adbc b62c e4bc 99e2 1f3d 869f adbb
00000190: ebcb 013c 502b be3c 1e20 a93c 2b65 ea3c
000001a0: ebff be3b 5e84 643c b6b4 073d a37f c4bc
000001b0: c81a 863c aece 293c f012 173d 57d2 e5bb
000001c0: 606a a4bc 3047 43bc 4b0d c0bc 656f 0f3c
000001d0: 6385 a13c 7cf8 c6bc fd1e 3dbc 97dd 443b
000001e0: 9f14 3cbb 7639 ab3c 2c41 0abc bc0a ea3c
000001f0: 471d e03c bd12 a1bc 0c8e 433b 0292 153c
00000200: 2286 cebb f120 82bc f02a aebb 21b6 d3bc
00000210: 9c9a eabc c7c7 953c 2b3a ac3b e342 4cbc
00000220: 2a7b c2bc ce8c dd3c fb39 ff3c c585 0bbc
00000230: 8a3e d83c bfb6 343c 24da 163c 05ea 20bd
00000240: a756 ddbc 2575 afbc 5e53 8e3c f0d8 80bc
00000250: cb43 d53c efdd b8bc d54b d1bb 8357 a5ba
00000260: dd39 383d 624c 583b 4975 f23c 2416 ff3c
00000270: e48f e93c 0fd4 3dbc 3d6f bc3b 05ad d93c
00000280: a3ac d53c 1b66 77bc 93ca 2cbc 89d4 43bc
00000290: f0cc d6bc 423b 1e3d 92ea 23bd 9e09 353c
000002a0: 9727 77bc 5b7f 97bc 1a34 83bc 0b0f a5bc
000002b0: 280f 8bbc 797e 743c c7cf 083d a547 6cbc
000002c0: 9172 fd3c 92f3 ad3c f3ca 873c c5ad 23bd
000002d0: 0619 793c 4c59 f9bc 258b b6bc 8ef8 333d
000002e0: 7243 44bc da05 fe3c 8699 87bc 2b70 8bbc
000002f0: 5b1e be3c 0492 47bc 1233 bbbc 6e32 c8bc
00000300: 02f4 5d3c 02e9 0e3d f0cf cbbc 8a78 d9bc
00000310: 9275 213d 0c84 153d 5434 c53c 3f08 d0bc
00000320: 1544 12bd 25a7 caba f553 283d 7959 093d
00000330: 1af1 953c 7418 29bc 71d3 ff3b 8588 263d
00000340: 6e9f 183d 99c7 293d bb9f e63c 6e50 7438
00000350: b8fd 4a3c 9ea8 103d 4176 1c3d 15ab 273d
00000360: e124 08bc 6e79 cebb 23c1 0b3c 755f 06bc
00000370: 805e ef3c b7cf 2d3d fa3c a5bc e595 eebc
00000380: a930 cebc 3406 12bd 18e3 0b3d affc 8c3c
00000390: d730 4e3c dff3 adbc fd20 f4bc 932a 123d
000003a0: d2ea 023b 67ca b9bc c781 163d 7d31 64bb
000003b0: cd18 b8bb 183a fe3c 4520 883c f0e9 8cbc
000003c0: da66 1dbd 00ea 053d bb3a 0c3d 87bd d7bc
000003d0: c039 46bb d163 2739 a43e 163d 2ce1 ce3c
000003e0: e0e1 d7bc 2b87 2f3c 3b6c b03c fc74 673c
000003f0: 066f 8abc aa8e 0ebd bcf1 0abd ecb0 fcbb

seq.4.bias f4 [128]
0.036897212 -0.012862923 0.03423334 0.032364026 0.010604032 -0.032115493 0.032969523 0.018340616
-0.03672605 0.003857922 0.038413372 0.038228966 -0.022735612 -0.0024198554 -0.038442433 0.020748746
-0.006582301 -0.013020766 0.013483351 0.010691229 0.027336529 -0.020626778 0.044517238 -0.031827692
-0.018125493 0.005380795 0.04123211 0.019077864 -0.025959447 0.0118713165 0.018897105 0.016628794
0.046086516 0.03526678 0.013891692 0.0056464593 0.027016032 -0.008733514 0.002247139 0.01088957
-0.037716698 -0.037463125 -0.02922977 0.04231514 0.03993794 0.0022098958 0.03909834 -0.034372702
-0.0054387846 0.041776255 0.019969009 -0.005787597 -0.028321195 -0.02837276 -0.041508134 -0.014650433
-0.040370505 -0.014410878 -0.0048577935 -0.029438946 -0.012494071 0.0130127845 0.034902487 0.0008200291
0.019939672 0.03653339 -0.031897068 0.021915928 -0.01476323 0.03964478 -0.041389767 0.002702699
-0.014175208 -0.021397226 0.025036449 0.026867293 0.0072257207 -0.0035700444 0.024748273 0.036192
-0.004132774 -0.026275584 -0.003822571 -0.014317989 -0.02570188 0.031311445 0.020696808 0.022457076
0.0010523784 0.00782292 -0.029166587 -0.034166235 -0.03230577 -0.02149258 -0.033370364 0.022875173
-0.007574447 0.035478007 -0.036110874 -0.01729459 0.032040883 0.007947118 0.006124857 -0.044888947
-0.02351532 0.0057518487 0.00479477 0.0011764425 0.034880817 0.007946164 -0.0068170903 -0.030235268
-0.027672557 -0.01317136 -0.016711393 0.045551196 -0.017548343 -0.013884412 -0.026460558 -0.024274258
0.021751527 -0.02389741 0.019217597 0.026897183 -0.038500275 -0.0073516252 0.03488607 0.00956377
00000000: 8821 173d 02bf 52bc 4238 0c3d 2490 043d
00000010: 89bc 2d3c 898b 03bd 0d0b 073d 0f3f 963c
00000020: 0e6e 16bd 31d5 7c3b 5757 1d3d fa95 1c3d
00000030: 0940 babc 7096 1ebb d075 1dbd 46f9 a93c
00000040: 58b0 d7bb 0d55 55bc 46e9 5c3c 442a 2f3c
00000050: dbf0 df3c 7df9 a8bc b557 363d c15d 02bd
00000060: ea7b 94bc 6151 b03b 00e3 283d 2e49 9c3c
00000070: e8a8 d4bc e97f 423c 1ace 9a3c 1c39 883c
00000080: 37c5 3c3d e673 103d fb99 633c ef05 b93b
00000090: ba50 dd3c 0317 0fbc bd44 133b 2b6a 323c
000000a0: d37c 1abd ef72 19bd 4573 efbc a452 2d3d
000000b0: f795 233d e6d3 103b 9525 203d 64ca 0cbd
000000c0: d537 b2bb 941d 2b3d 0c96 a33c e2a5 bdbb
000000d0: da01 e8bc fe6d e8bc 6f04 2abd 5f08 70bc
000000e0: 8b5b 25bd 9a1b 6cbc 202e 9fbb f229 f1bc
000000f0: efb3 4cbc 9333 553c e9f5 0e3d 39f7 563a
00000100: 8658 a33c 09a4 153d 80a6 02bd 0889 b33c
00000110: 7ae1 71bc 9162 223d 5188 29bd c41f 313b
00000120: 223f 68bc 3c49 afbc 3d19 cd3c cc18 dc3c
00000130: bdc5 ec3b 68f7 69bb e4bc ca3c 103e 143d
00000140: 396c 87bb e53f d7bc 1984 7abb 0096 6abc
00000150: c08c d2bc 6e40 003d 5a8c a93c e7f7 b73c
00000160: f6ef 893a b42b 003c c4ee eebc e5f1 0bbd
00000170: 0e53 04bd 3511 b0bc 5daf 08bd b764 bb3c
00000180: 1133 f8bb 6351 113d ffe8 13bd 62ad 8dbc
00000190: 4d3d 033d a134 023c 06b3 c83b 79dd 37bd
000001a0: 33a3 c0bc 017a bc3b 721d 9d3b dc32 9a3a
000001b0: 30df 0e3d a130 023c e661 dfbb f4af f7bc
000001c0: 8fb1 e2bc b0cc 57bc 55e6 88bc e493 3a3d
000001d0: 8bc1 8fbc 727b 63bc d0c3 d8bc cfda c6bc
000001e0: 4230 b23c 80c4 c3bc 396e 9d3c 7b57 dc3c
000001f0: 77b2 1dbd e7e5 f0bb b2e4 0e3d 5cb1 1c3c

seq.9.weight f4 [3, 512]
-0.002270402 0.0032704105 -0.0058539757 -0.025825815 0.0006735249 0.034905873 -0.02555542 0.031211883
-0.029794728 -0.0517882 -0.04240974 0.0013705392 -0.018844519 0.012909715 0.002368472 -0.03105281
0.0067532617 0.016086046 0.008810314 0.028214872 -0.04617948 -0.0065425495 -0.017399326 0.011943465
-0.019222675 0.019797377 -0.004689245 -0.019168269 0.0066228984 0.0065206457 0.0337086 0.0390733
-0.039799027 -0.010754138 0.0119910175 0.024025247 -0.02131986 -0.007812763 0.025871981 0.03556393
-0.011416643 0.03720369 -0.03607144 -0.036574647 -0.018091293 0.04833943 0.009723145 -0.03152863
-0.0018352714 0.026975252 -0.05180062 -0.0068481453 -0.009679977 0.027701322 -0.0128252655 -0.029837154
0.03652535 0.022133132 -0.047316235 0.021553805 0.021494512 0.037342522 -0.012611435 -0.010834603
-0.03680294 0.0059745368 0.012582138 0.013176546 -0.0455446 0.013693646 0.02154194 0.011175589
-0.027534144 -0.015001205 -0.008598586 0.01126585 -0.03749407 0.0247683 0.02541904 0.007532802
-0.017906748 -0.018616036 0.01790975 0.02715771 0.005328886 -0.0022849184 0.0013297414 0.012900808
0.020574896 -0.02513775 0.017031122 -0.014685355 0.048362177 0.012220658 0.005756436 -0.023665067
-0.043520246 -0.028059816 -0.029146977 -0.0045148376 -0.016777955 0.014670103 0.008706002 -0.029913161
-0.021592926 -0.03723843 -0.0046363105 -0.043027572 0.04007476 0.021222515 -0.010282316 0.012560632
-0.052313685 -0.020826051 0.010769918 0.015362113 -0.021821998 0.040241223 0.0297353 0.030630626
0.031631984 -0.020400401 0.045682244 0.004944422 -0.029820753 0.0395623 -0.035412367 -0.033072975
-0.016565029 0.0413408 0.008590894 0.05537327 0.022698333 0.02365694 0.010490734 0.004327493
-0.027993958 0.022346912 0.009477281 0.038667686 0.02517215 -0.015957065 0.0014851458 0.015271678
-0.010906458 0.007560093 -0.0107156485 0.009545165 0.027584063 0.009986276 0.03859774 0.036102146
0.018509768 -0.033452917 0.03137571 -0.016869642 -0.017683977 0.013060853 0.0482451 0.0057084206
0.040367562 0.053869937 0.012395398 -0.02458779 0.016728638 -0.009368576 -0.032837156 -0.043262865
0.030833267 0.03927089 0.010246094 -0.04199634 -0.026396884 0.008200451 0.009669193 -0.02108572
0.0072559547 -0.012493303 0.01819931 0.0652072 -0.039130304 0.020076932 0.01814256 0.025174692
0.012735399 -0.036021285 0.037109952 -0.03638198 -0.011835292 -0.006037172 0.03300239 -0.00090376893
-0.019137755 -0.035243865 0.050419766 0.044341993 -0.034400553 0.033117138 -0.016175577 -0.047861326
-0.008978225 0.016861722 -0.05218901 -0.026311435 0.03344987 0.044577263 -0.021418212 -0.028151626
-0.02012036 -0.012443927 0.002837029 0.01249043 0.054855622 -0.009961108 0.00577862 -0.015382646
0.021413144 -0.0113873035 0.02046444 -0.00823349 0.02917562 0.016703224 -0.018077448 -0.0017976561
0.019088345 0.019741457 0.025366528 0.012028169 -0.00035808928 0.048603002 -0.015938025 -0.03103849
0.01604423 0.0070508616 0.0016918759 -0.03822785 0.022566358 -0.035017267 0.026404528 -0.016563322
0.048629336 0.006751232 -0.037014484 -0.014295417 0.011661313 0.007119683 0.024186127 -0.021922592
0.0074710026 -0.03306803 0.027515767 0.031125156 -0.04937819 -0.00450918 0.018978117 0.01609653
00000000: 06cb 14bb 6254 563b b5d2 bfbb a990 d3bc
00000010: 7e8f 303a 76f9 0e3d 9a59 d1bc 10b0 ff3c
00000020: 1314 f4bc dd1f 54bd d6b5 2dbd aaa3 b33a
00000030: d25f 9abc 4583 533c 5e38 1b3b 7662 febc
00000040: 774a dd3b e2c6 833c 2359 103c e022 e73c
00000050: b226 3dbd e262 d6bb 0889 8ebc 86ae 433c
00000060: df78 9dbc 1c2e a23c 3da8 99bb c606 9dbc
00000070: e604 d93b 24ab d53b 0712 0a3d 530b 203d
00000080: 4e04 23bd 2032 30bc f975 443c 98d0 c43c
00000090: fda6 aebc 1a01 00bc 7af1 d33c 7cab 113d
000000a0: df0c 3bbc e562 183d a5bf 13bd 4ccf 15bd
000000b0: 3134 94bc 91ff 453d d34d 1f3c 2a24 01bd
000000c0: 7d8d f0ba 34fb dc3c e32c 54bd 6866 e0bb
000000d0: c498 1ebc e2ed e23c 1021 52bc 0c6d f4bc
000000e0: 9b9b 153d 8b50 b53c abce 41bd 9b91 b03c
000000f0: 4215 b03c 79f4 183d 31a0 4ebc 9e83 31bc
00000100: aebe 16bd 0cc6 c33b 5025 4e3c 71e2 573c
00000110: f98c 3abd 505b 603c b978 b03c d119 373c
00000120: 498f e1bc 9dc7 75bc 15e1 0cbc 6694 383c
00000130: 6293 19bd e4e6 ca3c 973b d03c b9d5 f63b
00000140: 2cb1 92bc a880 98bc 78b7 923c d979 de3c
00000150: f09d ae3b 92be 15bb b84a ae3a e95d 533c
00000160: af8c a83c afed cdbc da84 8b3c d89a 70bc
00000170: 6b17 463d 2839 483c 7ca0 bc3b 3edd c1bc
00000180: 4942 32bd b3dd e5bc a4c5 eebc 34f1 93bb
00000190: ec71 89bc df5a 703c 9ea3 0e3c 720c f5bc
000001a0: a6e3 b0bc 5387 18bd 31ec 97bb ae3d 30bd
000001b0: 6e25 243d d7da ad3c 2977 28bc 1ccb 4d3c
000001c0: e046 56bd 659b aabc 4f74 303c 5fb1 7b3c
000001d0: 0cc4 b2bc fbd3 243d 7297 f33c 14ed fa3c
000001e0: 8a90 013d be1e a7bc 4e1d 3b3d d104 a23b
000001f0: a74a f4bc 140c 223d 8f0c 11bd 8777 07bd
00000200: 62b3 87bc f854 293d d2c0 0c3c 15cf 623d
00000210: dbf1 b93c 33cc c13c 54e1 2b3c a4cd 8d3b
00000220: 9653 e5bc df10 b73c 9946 1b3c 0262 1e3d
00000230: d335 ce3c 64b8 82bc 39a9 c23a 0f36 7a3c
00000240: 00b1 32bc a8ba f73b b090 2fbc 5363 1c3c
00000250: f9f7 e13c 7a9d 233c aa18 1e3d d8df 133d
00000260: cca1 973c ed05 09bd d183 003d 3432 8abc
00000270: fddd 90bc 30fd 553c a79c 453d b40d bb3b
00000280: 7558 253d b9a6 5c3d 1116 4b3c 556c c9bc
00000290: 7f0a 893c a87e 19bc 4180 06bd 6734 31bd
000002a0: 0c96 fc3c 83da 203d 3cdf 273c 5b04 2cbd
000002b0: 473e d8bc 2f5b 063c 896b 1e3c f6bb acbc
000002c0: 5cc3 ed3b b6b0 4cbc b816 953c 5a8b 853d
000002d0: 1947 20bd 6178 a43c b59f 943c 283b ce3c
000002e0: 23a8 503c 0e8b 13bd 9b00 183d 4505 15bd
000002f0: d0e8 41bc 78d3 c5bb 842d 073d e8ea 6cba
00000300: c8c6 9cbc df5b 10bd f584 4e3d f39f 353d
00000310: 98e7 0cbd d6a5 073d a582 84bc 3d0a 44bd
00000320: 6819 13bc 9821 8a3c 25c4 55bd 148b d7bc
00000330: bb02 093d a696 363d 3f75 afbc 3d9e e6bc
00000340: 74d3 a4bc 9de1 4bbc 73ed 393b a9a4 4c3c
00000350: 4ab0 603d ea33 23bc 945a bd3b 7e07 7cbc
00000360: 9e6a af3c d091 3abc 0ba5 a73c c3e5 06bc
00000370: b601 ef3c 33d5 883c 2817 94bc 549f ebba
00000380: 295f 9c3c d6b8 a13c 77cd cf3c cc11 453c
00000390: eebd bbb9 f113 473d 7690 82bc 6e44 febc
000003a0: 306f 833c ea0a e73b efc1 dd3a ce94 1cbd
000003b0: 15dd b83c 446e 0fbd 4f4e d83c ceaf 87bc
000003c0: 8e2f 473d 7039 dd3b 809c 17bd 5337 6abc
000003d0: 170f 3f3c 3b4c e93b fc21 c63c 0297 b3bc
000003e0: 50cf f43b 5872 07bd bf68 e13c 2ffa fe3c
000003f0: c940 4abd bec1 93bb ff77 9b3c dfdc 833c

seq.9.bias f4 [3]
-0.033830304 -0.015876943 -0.012233389
00000000: a591 0abd 5d10 82bc 8d6e 48bc
