6 lab/ts.pth (torch, 6703 bytes, 5 tensors)

lstm.weight_ih_l0 f4 [64, 1]
-0.056283463 -0.005211902 0.07369104 0.13678315 0.08108325 0.028707147 -0.04790306 -0.023112204
0.1256573 0.09718535 0.009972365 -0.036736313 -0.2756597 -0.02855721 0.016333835 0.10769626
-0.21667393 0.5846479 0.36816034 0.18140073 0.24706604 -0.25942335 -0.27924472 0.115907125
-0.28777683 0.3876647 0.06649215 0.27191335 -0.052515596 0.2997523 -0.3625816 0.11663187
0.16741559 0.17639057 -0.14622605 0.12610404 -0.089749195 0.12544908 0.09400213 -0.11396255
-0.19207954 -0.13673277 -0.13860226 -0.14802276 0.21616158 0.12434219 -0.16471143 0.010471107
-0.036630552 -0.016439188 0.26927704 0.13543668 0.14824815 0.014577147 -0.3231454 -0.052658863
-0.3164193 0.5575245 0.009668455 -0.019987304 -0.35811013 -0.033664007 0.00070764014 0.10042971
00000000: 7d89 66bd 9ac8 aabb 54eb 963d e210 0c3e
00000010: fa0e a63d 402b eb3c 0036 44bd ce55 bdbc
00000020: 4fac 003e 1d09 c73d 2163 233c d178 16bd
00000030: 4523 8dbe cff0 e9bc 89ce 853c db8f dc3d
00000040: c5df 5dbe 7cab 153f 837f bc3e 1dc1 393e
00000050: e1fe 7c3e 23d3 84be 2af9 8ebe b760 ed3d
00000060: 7c57 93be fd7b c63e 092d 883d 3a38 8b3e
00000070: 981a 57bd 2279 993e 4ca4 b9be b1dc ee3d
00000080: fe6e 2b3e bb9f 343e 48bc 15be 6b21 013e
00000090: 6dce b7bd b975 003e 3084 c03d 3365 e9bd
000000a0: 80b0 44be ad03 0cbe c0ed 0dbe 4793 17be
000000b0: 7659 5d3e 1ea7 fe3d 1daa 28be 028f 2b3c
000000c0: eb09 16bd 7aab 86bc aede 893e eaaf 0a3e
000000d0: 5dce 173e fcd4 6e3c 5073 a5be d2b0 57bd
000000e0: b601 a2be edb9 0e3f 7168 1e3c 6abc a3bc
000000f0: 365a b7be 45e3 09bd ed80 393a 17ae cd3d

lstm.weight_hh_l0 f4 [64, 16]
-0.3377486 -0.268769 -0.16792773 1.1439674 -0.16497028 0.39326593 -0.37331372 1.0274141
0.21223527 -0.3124521 -0.59507364 0.4623222 -0.90784115 -1.0809175 0.15963073 0.8313109
-0.16033512 0.51168376 -0.30088496 0.61596555 -0.5428359 0.22236852 -0.48396993 0.26826677
0.22527161 -0.745315 -0.33203116 -0.53033984 -0.5387656 0.22999662 0.31805006 0.6451873
0.14442839 0.043472126 -0.4691545 0.5740346 -0.092070825 0.09632185 0.15051101 -0.19306596
0.17516012 -0.43323237 -0.3227045 -0.38554746 0.31032726 0.2717209 0.030791165 0.38886026
0.01707369 -0.05908987 0.40830976 -0.22406541 0.39550105 0.09343209 0.019394761 -0.17648062
-0.2865691 -0.12968005 0.12740272 0.63514584 0.1552425 -0.54308397 -0.012787565 0.11255381
-0.066352636 0.24978556 -0.33541968 0.0089988215 -0.20277078 -0.112833045 -0.29283628 0.40779662
0.23840043 -0.08391043 -0.11049041 0.15692014 -0.06876469 -0.16588092 -0.01867943 0.0423868
-0.39445364 0.29642594 -0.31135708 0.67753774 -0.4921388 -0.13469207 -0.74770224 0.3507362
0.6332989 -0.33752254 -0.43769613 -0.59146786 -1.052053 0.1479676 0.36902714 0.6065153
-0.45581615 -0.06138365 -0.07025713 0.24531588 -0.17059086 0.16449499 -0.5818914 0.23214005
0.24137764 -0.18447012 0.18877703 0.20926216 -0.24059404 -0.3039092 0.45291406 0.72920436
-0.6027335 0.61568046 -0.63437545 0.4622276 -0.4196437 -0.38457835 -0.4048915 -0.08529036
0.71525323 -0.8296745 -0.14123923 -1.2343043 -0.4982383 0.66806066 0.44086117 0.5760453
-0.37702575 0.100581065 0.06529127 -0.18065518 -0.3433784 -0.29092544 -0.44693244 -0.16192134
0.5280789 0.11393398 0.102211915 -0.16144921 -0.29226878 0.22539803 0.8812649 0.20765115
-0.47006685 0.2711116 -0.46854424 0.63368416 -0.5268555 -0.15134488 -0.5024857 -0.23419884
0.6169206 -0.7263142 0.38750404 -0.37299687 -0.20377561 0.580993 0.3729428 0.6591365
-0.6006244 0.0672329 -0.3199121 0.66898376 -0.75357133 0.05106349 -0.3634106 0.59004647
0.5071397 -0.4149093 -0.25341302 -0.31534895 -0.81850785 -0.29537177 0.48858666 0.6134722
-0.26348987 0.30162424 -0.21751007 0.61356753 -0.44603834 -0.2494231 -0.32754803 -0.12806053
0.13522495 -0.30920944 -0.12940429 -0.1627453 -0.39465353 0.2967738 0.411194 0.5008297
0.257055 -0.16012435 0.056268785 -0.23187129 -0.28308612 0.5729729 -0.095893696 -0.063707
0.14052518 0.26413405 -0.3179303 -0.107314 0.21736328 0.30985108 -0.35675886 0.057886712
-0.6196782 0.15736248 -0.45402476 0.68912005 -0.34684297 -0.34853604 -0.3816757 0.11621152
0.5268867 -0.38497835 -0.20441172 -0.33286086 -0.7699663 0.16650753 0.280551 0.3492131
-0.54783845 0.2852858 -0.1684243 0.68920004 -0.5442457 -0.110401556 -0.7693258 0.49231267
0.60286087 -0.3408645 -0.533788 -0.09772849 -0.50180656 0.10577441 0.14390416 0.65885884
0.023525244 -0.18426429 0.026631353 -0.20281044 -0.083118446 -0.044252608 0.09093056 0.22527663
0.027619993 0.2080124 -0.0018325775 0.21603656 -0.1884504 -0.6847269 0.050958514 0.11524244
00000000: 62ed acbe 179c 89be 3ff5 2bbe 866d 923f
00000010: f8ed 28be 275a c93e fa22 bfbe 4e82 833f
00000020: 3454 593e b9f9 9fbe bf56 18bf 7fb5 ec3e
00000030: 4768 68bf 815b 8abf 3d76 233e cbd0 543f
00000040: e42e 24be b5fd 023f 980d 9abe ebaf 1d3f
00000050: 4bf7 0abf 93b4 633e e8ca f7be 435a 893e
00000060: 9aad 663e f7cc 3ebf fdff a9be 5ac4 07bf
00000070: 8bec 09bf 3c84 6b3e 75d7 a23e ff2a 253f
00000080: 09e5 133e d40f 323d 0535 f0be eef3 123f
00000090: a18f bcbd 6444 c53d 8f1f 1a3e 15b3 45be
000000a0: 2d5d 333e a2d0 ddbe 8639 a5be 7a66 c5be
000000b0: 37e3 9e3e 001f 8b3e c13d fc3c b118 c73e
000000c0: 20de 8b3c 3808 72bd fa0d d13e 6771 65be
000000d0: 1d7f ca3e 5359 bf3d c3e1 9e3c 56b7 34be
000000e0: 2fb9 92be d9ca 04be dc75 023e eb98 223f
000000f0: e4f7 1e3e 8d07 0bbf ef82 51bc 9d82 e63d
00000100: e4e3 87bd c9c7 7f3e 21bc abbe cb6f 133c
00000110: 25a3 4fbe 0315 e7bd a3ee 95be b8ca d03e
00000120: 3e1f 743e 3bd9 abbd cc48 e2bd acaf 203e
00000130: 80d4 8cbd b0dc 29be 9b05 99bc c89d 2d3d
00000140: d4f5 c9be 24c5 973e 326a 9fbe 1d73 2d3f
00000150: 9ef9 fbbe b8ec 09be 6a69 3fbf b293 b33e
00000160: e01f 223f c1cf acbe b519 e0be 706a 17bf
00000170: aca9 86bf d284 173e 20f1 bc3e 9644 1b3f
00000180: bc60 e9be 6c6d 7bbd f8e2 8fbd 1634 7b3e
00000190: 5faf 2ebe 6071 283e d6f6 14bf 1fb6 6d3e
000001a0: b32b 773e bce5 3cbe c44e 413e d248 563e
000001b0: 495e 76be fd99 9bbe 5ae4 e73e 23ad 3a3f
000001c0: be4c 1abf 3c9d 1d3f 6e66 22bf 19a9 ec3e
000001d0: 8adb d6be 74e7 c4be f04d cfbe b6ac aebd
000001e0: d61a 373f 8c65 54bf 04a1 10be affd 9dbf
000001f0: 1719 ffbe 0606 2b3f 8eb8 e13e b477 133f
00000200: 8509 c1be 72fd cd3d 6eb7 853d acfd 38be
00000210: 4bcf afbe 2ef4 94be 54d4 e4be b5ce 25be
00000220: 2e30 073f 3856 e93d 7b54 d13d f152 25be
00000230: 41a4 95be bece 663e 949a 613f 81a2 543e
00000240: 9aac f0be 24cf 8a3e 08e5 efbe 2039 223f
00000250: 01e0 06bf 27fa 1abe e7a2 00bf d2d1 6fbe
00000260: 82ee 1d3f baef 39bf ee66 c63e 72f9 bebe
00000270: 8eaa 50be f5bb 143f 5cf2 be3e 2bbd 283f
00000280: 85c2 19bf 67b1 893d 85cb a3be 8542 2b3f
00000290: 0dea 40bf f327 513d f410 babe 490d 173f
000002a0: e8d3 013f fe6e d4be 5abf 81be 6b75 a1be
000002b0: bb89 51bf f83a 97be 0828 fa3e 840c 1d3f
000002c0: 25e8 86be 7e6e 9a3e f6ba 5ebe c312 1d3f
000002d0: 235f e4be c568 7fbe 60b4 a7be 4d22 03be
000002e0: 6978 0a3e b350 9ebe 8f82 04be b4a6 26be
000002f0: 0710 cabe bcf2 973e 0588 d23e 6036 003f
00000300: b79c 833e a3f7 23be 197a 663d ab6f 6dbe
00000310: aaf0 90be 5aae 123f ea63 c4bd d178 82bd
00000320: d5e5 0f3e 943c 873e c3c7 a2be 71c7 dbbd
00000330: 7b94 5e3e cda4 9e3e 19a9 b6be 9e1a 6d3d
00000340: 3ba3 1ebf a123 213e ef75 e8be 2c6a 303f
00000350: 6795 b1be 5173 b2be ff6a c3be 4e00 ee3d
00000360: 0ce2 063f e21b c5be 4e51 51be bd6c aabe
00000370: 831c 45bf f380 2a3e 61a4 8f3e 0fcc b23e
00000380: 243f 0cbf fb10 923e 6b77 2cbe 6a6f 303f
00000390: b053 0bbf 361a e2bd 89f2 44bf 6810 fc3e
000003a0: 1755 1a3f cb85 aebe 55a6 08bf e025 c8bd
000003b0: 6576 00bf 41a0 d83d 9d5b 133e f9aa 283f
000003c0: 03b8 c03c c7af 3cbe ff29 da3c 8aad 4fbe
000003d0: 013a aabd 3942 35bd cd39 ba3d ebae 663e
000003e0: 5343 e23c 3401 553e 1933 f0ba b038 5d3e
000003f0: 24f9 40be 434a 2fbf e0b9 503d 3a04 ec3d

lstm.bias_ih_l0 f4 [64]
0.5394166 0.21346615 0.3313267 -0.23901719 0.0072344574 0.37443948 0.49703094 0.35064143
0.32047415 0.31381828 0.6939751 0.20579371 -0.2311118 0.5945572 0.5830288 -0.070820116
-0.03289351 -0.0035139124 0.004727837 0.46301785 -0.09960411 -0.028949449 0.058268696 -0.027015265
0.5690511 0.24475479 -0.3320716 0.27174473 -0.1998177 -0.07118987 -0.06615057 -0.19843224
-0.20462455 0.23371267 -0.16358045 0.19204198 -0.16628446 -0.09387425 -0.30758986 0.009630684
0.5212834 -0.33214462 0.057347573 -0.17144948 -0.43425784 0.22506776 0.2321758 0.48500597
0.35515076 0.4521466 0.20797001 0.0018342768 0.21178675 0.63670915 -0.028408809 0.41539612
-0.017676095 -0.32798076 0.49550146 0.4646654 -0.31787923 0.56152403 0.4994094 -0.11873991
00000000: 3517 0a3f df96 5a3e a7a3 a93e ecc0 74be
00000010: 070f ed3b 88b6 bf3e d77a fe3e 4687 b33e
00000020: 3015 a43e caac a03e 5aa8 313f 96bb 523e
00000030: 92a8 6cbe e734 183f 6041 153f 230a 91bd
00000040: 58bb 06bd ab49 66bb f9eb 9a3b ad10 ed3e
00000050: 3dfd cbbd 6527 edbc 28ab 6e3d 1e4f ddbc
00000060: 55ad 113f 00a1 7a3e 4a05 aabe 2022 8b3e
00000070: 039d 4cbe ffcb 91bd f379 87bd d231 4bbe
00000080: 1989 51be 6052 6f3e a281 27be a7a6 443e
00000090: 7946 2abe 2541 c0bd 6b7c 9dbe 04ca 1d3c
000000a0: d472 053f dc0e aabe 4ae5 6a3d 7490 2fbe
000000b0: 0b57 debe 2a78 663e 7ebf 6d3e b452 f83e
000000c0: 52d6 b53e c27f e73e 17f6 543e 1e6c f03a
000000d0: a0de 583e 5fff 223f 97b9 e8bc cdae d43e
000000e0: 75cd 90bc 18ed a7be 5eb2 fd3e a0e8 ed3e
000000f0: 11c1 a2be 0ac0 0f3f 97b2 ff3e e92d f3bd

lstm.bias_hh_l0 f4 [64]
0.4466707 0.6055419 0.106977716 -0.12887424 0.10073951 0.53290033 0.4044806 0.5418387
0.32136756 0.3384772 0.5707935 0.45099133 -0.23588443 0.63467026 0.65978605 0.13972308
-0.002097086 0.17744271 0.08141769 0.07909116 -0.03908285 0.012397896 0.017520305 -0.039026987
0.12134429 0.4324583 -0.23144081 -0.028766884 -0.11164201 -0.1503662 0.23152603 -0.017663868
-0.1823176 0.2241565 -0.28598532 0.09888117 -0.08989927 -0.04614462 -0.21432836 -0.026777944
0.48347256 -0.10572768 -0.16738963 -0.27791792 -0.09799946 -0.10227374 0.2707951 0.45115286
0.46114755 0.44977212 -0.026169585 -0.0765597 -0.047240213 0.63931817 0.15636726 0.64637136
0.16166075 0.020166662 0.6796964 0.47062773 -0.00539763 0.41016296 0.72368586 -0.26316446
00000000: 06b2 e43e cb04 1b3f 2217 db3d 9cf7 03be
00000010: 8450 ce3d 286c 083f 1518 cf3e f1b5 0a3f
00000020: 4a8a a43e e24c ad3e 861f 123f 56e8 e63e
00000030: b08b 71be c079 223f bde7 283f 9113 0f3e
00000040: 446f 09bb 8bb3 353e 51be a63d 8cfa a13d
00000050: 5715 20bd 8b20 4b3c be86 8f3c c3da 1fbd
00000060: 5b83 f83d 2d6b dd3e d2fe 6cbe 87a8 ebbc
00000070: 91a4 e4bd 99f9 19be 2915 6d3e d1b3 90bc
00000080: 77b1 3abe 4889 653e ab6c 92be 3682 ca3d
00000090: 1c1d b8bd 2402 3dbd e578 5bbe 6b5d dbbc
000000a0: b789 f73e c187 d8bd 3068 2bbe 424b 8ebe
000000b0: f1b3 c8bd e574 d1bd a8a5 8a3e 82fd e63e
000000c0: 881b ec3e 8848 e63e 9961 d6bc 55cb 9cbd
000000d0: f47e 41bd 5baa 233f bd1e 203e 9878 253f
000000e0: 658a 253e 8e34 a53c 9500 2e3f 1ef6 f03e
000000f0: 9ade b0bb e100 d23e 7a43 393f 7ebd 86be

fc.weight f4 [1, 16]
-1.0127054 -0.741034 0.68330693 -0.24613167 0.67829484 -0.7956203 -0.7517241 0.8544959
0.47763783 1.1377342 1.0550101 0.54082835 -0.31972104 -0.8292812 0.66606134 0.092191726
00000000: 55a0 81bf 67b4 3dbf 34ed 2e3f f109 7cbe
00000010: bba4 2d3f c6ad 4bbf fe70 40bf 3ec0 5a3f
00000020: f28c f43e 46a1 913f 920a 873f ba73 0a3f
00000030: 7ab2 a3be c64b 54bf ff82 2a3f 04cf bc3d
